503-ParamStatistics/densenet_DIY.pkl (torch_old, 803901 bytes, 201 tensors)

features.conv0.weight f4 [24, 3, 7, 7]
000000 62 52 21 3e 6a 3b 84 3e 89 a4 85 3e c3 b1 43 3e
       0.15754083 0.2582658 0.26102093 0.1911078
000010 8d a9 af 3d 7b 67 d2 3d e0 5e 0a 3e 1c 04 56 3e
       0.08577261 0.102736436 0.13512754 0.20900005
000020 d9 8f 29 bb 6a ba 98 bb e8 cf a0 3e 75 6e 8a 3d
       -0.0025873093 -0.004660894 0.3140862 0.06759349
000030 e6 0e 82 bd c9 70 8d 3e 6f 43 4f be dd 7f 3b 3d
       -0.06350498 0.2762511 -0.20240568 0.045776237
000040 b6 f0 05 3d 40 86 24 3e 68 93 81 bd 8f 42 12 3d
       0.032700263 0.16066837 -0.06326944 0.035708006
000050 a1 87 f0 3d ed aa 4d 3b e0 33 b2 3d f9 80 10 be
       0.11744619 0.0031382397 0.087013006 -0.14111699
000060 73 42 6e bc 4c 6d b9 3d a3 20 1b 3e b3 1a 4b 3d
       -0.01454221 0.0905405 0.15149169 0.04958601
000070 eb 05 85 3d 8c 7c ff bd 39 08 18 be 0f eb 58 be
       0.064952694 -0.12474927 -0.14846887 -0.21183418
000080 0c b1 53 3c e4 2e c9 3d 29 d6 57 bd 12 e5 4f be
       0.012920629 0.09823397 -0.052694473 -0.20302227
000090 c0 48 42 be dc 12 27 bd 52 49 8b be 85 6c 2e be
       -0.18973064 -0.04078947 -0.27204376 -0.17033584
0000a0 9d 3c e3 bd 55 9f a4 3d d7 5d e8 bd 14 43 2b bd
       -0.110955454 0.08038203 -0.113460235 -0.041812018
0000b0 e6 8b e3 bd 78 da 1f be 10 4d 6f be 09 a9 e6 bd
       -0.11110668 -0.15610683 -0.23369241 -0.1126271
0000c0 2c c4 13 be b5 94 92 3c c0 47 0a 3e 9d 10 61 3e
       -0.14430302 0.017893175 0.13503933 0.21978994
0000d0 41 a3 1b 3e 3a 61 45 3e 53 60 a6 3d 94 7d 7a 3e
       0.15198995 0.1927537 0.08123841 0.24461967
0000e0 f8 1d 4f bd 32 db 61 3d e3 92 5e 3e a0 76 2c 3d
       -0.05056569 0.05514068 0.2173572 0.042105317
0000f0 5c c2 24 3e e3 15 58 3e 9b fd 10 bd 0f f4 23 3e
       0.16089767 0.21102099 -0.035398107 0.1601107
000100 14 26 78 3c 2f 04 23 3c 43 f0 e0 bd 5b 58 e2 3d
       0.015145797 0.009949728 -0.10983326 0.11052009
000110 3f 50 59 3e e0 0d da 3c db d9 a4 be 7e 45 af be
       0.21222018 0.026617944 -0.3219746 -0.34232706
000120 8b 01 4e be 8e 46 30 3d c1 76 ec 3d 5f 95 cd 3d
       -0.20117776 0.043036036 0.11546088 0.10038256
000130 b6 00 62 bd 9d 06 dc bd e7 20 6f be e4 59 77 be
       -0.05517646 -0.10743449 -0.23352395 -0.24155384
000140 d4 64 3b bd ae 0c a0 be 83 8b 93 bc 15 23 f3 bd
       -0.045750454 -0.31259674 -0.01801086 -0.11871926
000150 60 e5 40 bd 93 14 33 bd cc a7 7a be 3e 31 ca bd
       -0.04709375 -0.043720793 -0.24478072 -0.098726735
000160 18 44 a7 bd 9a f7 20 bd 66 f9 2c 3e b7 26 ab bd
       -0.08167285 -0.03929863 0.16892013 -0.08356994
000170 58 02 49 be 66 c8 18 be d7 6d 0d be 5e 08 51 be
       -0.196298 -0.14920196 -0.13811432 -0.20413348
000180 b2 02 c5 be a5 fc 09 be c4 9d 15 bd 82 21 f9 3d
       -0.3847862 -0.13475282 -0.03652741 0.12164594
000190 62 dd 29 bd cc 2e 89 3d 7b 9a b7 bd 24 30 76 3e
       -0.041470893 0.06698379 -0.08965012 0.24041802
0001a0 30 28 04 3d f3 bd 72 3d b4 a4 ce 3d b5 2e 36 3d
       0.03226489 0.05926318 0.100900084 0.044478137
0001b0 44 f4 7f 3e 31 d1 22 3e e9 c4 22 bd 55 98 f5 bd
       0.24995524 0.15900113 -0.03973857 -0.11991946
0001c0 ba e4 9a bd b0 b8 9b 3d 60 4e de 3d 40 5e 8c 3d
       -0.075631574 0.07603586 0.108547926 0.06853914
0001d0 b5 ea 3e 3e c5 83 9e 3d 2e f6 b3 3d b2 d2 88 bd
       0.18644221 0.07739977 0.087871894 -0.06680812
0001e0 90 e7 33 3d c6 eb f4 3d 95 2f 7c 3d 3e ab 08 bc
       0.043922007 0.11959033 0.061568815 -0.008341609
0001f0 b8 23 70 bd 0f 12 cf 3d e0 62 fc bd 22 f4 68 bd
       -0.058627814 0.10110866 -0.123235464 -0.05687345
000200 bf ce 86 bd d3 d3 02 3c 1b a9 e5 bd bd bc 08 3d
       -0.065824024 0.007985073 -0.11213895 0.03338312
000210 e6 2d 4e bc 0e 50 6a bd f5 36 a3 bc 9c 09 54 be
       -0.012584185 -0.057205252 -0.019923666 -0.2070679
000220 51 56 27 be 61 66 e3 3c a4 40 44 3d 41 36 0a bd
       -0.16341521 0.027758779 0.04791321 -0.033743147
000230 7d d1 68 bd 49 48 b3 bc bf 3e 47 be 3e ec 30 be
       -0.05684041 -0.021885054 -0.1945753 -0.17277619
000240 6e c3 0e be e5 e9 86 3d c4 ad 57 3e 37 b8 dc bd
       -0.13941738 0.065875806 0.2106238 -0.10777324
000250 50 43 11 be df 6b 23 3c 05 4f a0 be f8 8c a0 bd
       -0.14185834 0.009974449 -0.31310287 -0.07839388
000260 64 db fe 3c 6f bf ce 3b 3d 4b 2d bd 38 27 44 3e
       0.031110473 0.0063094418 -0.04230808 0.19155586
000270 b8 27 a7 bd e4 1d fe bc 55 1f f6 3d c0 6d 5e bc
       -0.081618726 -0.031020112 0.12017695 -0.013575971
000280 24 e3 a3 be 9b 8f eb bc 2b 3e 4a 3e d0 16 ae 3e
       -0.32009232 -0.028755 0.19750278 0.3400178
000290 c7 d4 e6 3c 91 1e 75 3e 46 5e 2c 3d 0c 2b db bc
       0.028177632 0.23937441 0.042082094 -0.026753925
0002a0 47 29 cc bd b7 c3 3d 3e f4 ba 33 3a dc ae bd 3e
       -0.099688105 0.1853169 0.00068561663 0.3704747
0002b0 ce 64 25 3d dc 7f 88 3d eb 33 ac bd 97 b2 51 3e
       0.040379338 0.06665012 -0.0840834 0.20478283
0002c0 40 bf 5d bd 76 c9 a3 bc 0b 38 a5 3d de 08 38 3d
       -0.05413747 -0.019993525 0.0806733 0.04493033
0002d0 fc 0e a0 be e8 21 87 bc 0e f0 9e be 23 8f f0 3d
       -0.31261432 -0.01649566 -0.31042522 0.11746051
0002e0 f0 32 fc bd 43 d3 d5 bd b4 22 31 3d ce cf 90 bc
       -0.12314403 -0.104406856 0.043245986 -0.017677214
0002f0 94 00 3c be 39 a2 b8 3d e7 b5 b9 bd 55 83 68 bb
       -0.18359596 0.090153165 -0.09067898 -0.003547867
000300 56 92 36 bc 6a 8f f7 3d ce c0 3c be 50 37 e8 3d
       -0.011143288 0.12087901 -0.18432924 0.11338675
000310 bd 56 6e bd 2f d9 33 be 88 58 05 be d3 da 23 be
       -0.05818819 -0.17563318 -0.13022053 -0.16001444
000320 2e 61 dd bd de d8 61 3d fd f9 57 bd cf 66 fe bd
       -0.10809551 0.05513846 -0.05272864 -0.12421953
000330 51 1b 24 3d 00 42 83 3d e4 8b fb bc 95 10 06 be
       0.040065113 0.06409073 -0.030706353 -0.13092263
000340 cb e7 77 bd 1c db 39 bc de 14 bf bd 6b 8d a2 bb
       -0.06052379 -0.011343744 -0.09330152 -0.004960706
000350 14 8b 61 3d 76 11 a8 3e 2d 2c 87 3d 78 ec 6c 3d
       0.055064276 0.32825822 0.06600223 0.0578427
000360 80 a8 a3 3d b3 10 23 bd 35 7e 5a 3e bb 96 19 3e
       0.07991123 -0.039810847 0.21337207 0.14998905
000370 00 59 50 3e 63 54 4a bd 23 61 ab bd f4 b0 d6 3d
       0.20346451 -0.049396884 -0.08368137 0.1048297
000380 45 7c 2b be 8c b6 dd bc 4f 4b 40 bd 61 56 c1 3d
       -0.16746624 -0.027064584 -0.04694682 0.094403036
000390 b4 5e b5 be 86 ad df bc 18 e2 55 bd da 8d ae bd
       -0.35423815 -0.027304422 -0.052217573 -0.0852315
0003a0 a5 3a 66 be 8a ee 2d be 29 ca 9a be fa 90 69 be
       -0.22483309 -0.16985527 -0.3023236 -0.2280921
0003b0 83 02 a1 be b5 0b ad 3c 8a 8f 56 3b 07 cb ff bc
       -0.3144723 0.021123746 0.0032739365 -0.03122474
0003c0 f0 0a 30 3d 06 df 49 bd b1 2f de bd db 8d e0 bc
       0.04297918 -0.049284957 -0.1084894 -0.027411392
0003d0 b1 72 1f be aa 39 76 be 19 c6 18 be fb 95 2d be
       -0.15571095 -0.24045435 -0.14919318 -0.16951744
0003e0 cd bc 3b be e7 78 f6 bb 68 5f 2f bd 89 7c 76 3d
       -0.1833374 -0.007521737 -0.042815596 0.06017736
0003f0 76 bf 7e 3d 03 92 4d be e8 ec 17 3e b6 ec cc 3d
       0.06219431 -0.2007523 0.14836466 0.100060865

features.norm0.weight f4 [24]
000000 c1 d5 7b 3f d0 46 73 3f f1 09 77 3f c0 26 77 3f
       0.9837304 0.95029926 0.96499544 0.965435
000010 b6 7c 79 3f b8 f5 7b 3f ba f1 7e 3f eb ec 76 3f
       0.9745592 0.9842181 0.99587595 0.9645526
000020 89 a2 7d 3f c4 c2 75 3f 5a 31 77 3f 5e a3 77 3f
       0.99076134 0.96000314 0.9655968 0.96733654
000030 c0 d4 71 3f 16 9e 76 3f 7f 83 79 3f 61 06 7a 3f
       0.94465256 0.9633497 0.9746627 0.97665983
000040 8f 43 78 3f 17 99 7b 3f 7c 60 7f 3f fd 3b 6d 3f
       0.96978086 0.9828047 0.997566 0.9266966
000050 78 b2 78 3f d2 7b 73 3f 6a 01 33 3f 84 0a 7c 3f
       0.9714732 0.9511081 0.6992403 0.98453546

features.norm0.bias f4 [24]
000000 fe 55 3b 3e df 96 a3 3e de fb 8d 3e 8d 86 8a 3e
       0.18294522 0.31951043 0.27731222 0.2705578
000010 08 e7 6b 3e 19 9a 38 3e 4e 3a ed 3d db 03 88 3e
       0.2303735 0.18027534 0.11583386 0.2656544
000020 b0 1e 16 3e 29 7b 90 3e 27 6e 88 3e 32 7e 84 3e
       0.14660144 0.28218964 0.2664654 0.2587753
000030 3c da aa 3e 5d cd 8a 3e 0a 6f 67 3e f2 62 63 3e
       0.33369625 0.27109805 0.22600952 0.22205713
000040 d3 c2 85 3e 94 48 44 3e aa 38 da 3d 96 5b c1 3e
       0.26125202 0.19168311 0.10655339 0.37765187
000050 2d 83 75 3e 3d 19 a0 3e b4 4d 38 3f 08 bc 3e 3e
       0.23975821 0.31269255 0.71993566 0.18626416

features.norm0.running_mean f4 [24]
000000 9a f1 86 3d e7 83 00 3e 34 c6 24 be de ed 7f bd
       0.065890506 0.12550317 -0.16091233 -0.062482707
000010 28 94 28 3d b9 b0 87 3d 8b 4c a4 be da cc 12 3c
       0.041156918 0.06625504 -0.32089648 0.008959973
000020 68 b6 8d bd e3 cd 4d 3c 18 70 66 be 1a e5 8c 3d
       -0.06919557 0.012561294 -0.22503698 0.06879635
000030 0c e4 02 be 6b c1 06 bc 47 d0 b3 3c 84 c9 cc bd
       -0.12782305 -0.008224825 0.0219499 -0.099993736
000040 24 04 c4 3d aa 11 a4 3d e5 ae d1 3d fc 54 8f 3c
       0.09571102 0.08011182 0.102384366 0.017496578
000050 23 87 1c bc 10 1a 35 3e fc a8 94 3e c4 08 35 be
       -0.0095537035 0.17685723 0.29035175 -0.17679125

features.norm0.running_var f4 [24]
000000 fc d2 c4 40 68 eb a2 40 26 13 88 41 2c 9a ae 40
       6.150755 5.091236 17.00935 5.45632
000010 1b c5 71 40 b7 22 bc 40 c7 fb 06 42 11 56 8c 40
       3.7776554 5.8792377 33.745876 4.385506
000020 df 76 b5 40 81 18 e2 40 ba f2 dc 40 b7 e5 fc 40
       5.6707606 7.065491 6.9046297 7.9030414
000030 bd 88 ac 40 8d a5 71 40 97 c6 06 40 d5 0b 36 40
       5.3916917 3.7757294 2.105871 2.8444722
000040 12 8b a0 40 2e 04 b1 40 8b 36 b3 40 02 2e b9 40
       5.0169764 5.53176 5.600408 5.786866
000050 e7 89 18 41 28 5b 21 41 51 39 ec 40 52 13 b7 40
       9.533668 10.084755 7.3819966 5.7211084

features.denseblock1.denselayer1.norm1.weight f4 [24]
000000 d9 52 79 3f c8 76 6a 3f 9e ba 88 3f bf 09 65 3f
       0.9739204 0.91587496 1.0681951 0.89467996
000010 73 ac 78 3f 48 be 7b 3f 34 a5 50 3f 7b 88 77 3f
       0.97138137 0.9833722 0.8150208 0.9669263
000020 9c 70 7d 3f 00 23 7a 3f 12 6b 49 3f 9e 5e 87 3f
       0.98999953 0.97709656 0.78679 1.057575
000030 61 7c 6a 3f 83 a3 55 3f 5e 60 7b 3f 07 f7 5e 3f
       0.9159604 0.83452624 0.9819392 0.87095684
000040 dc 1b 51 3f 76 9f 82 3f 30 5a 72 3f 53 53 76 3f
       0.81683135 1.0204914 0.94668865 0.9622089
000050 f2 bd 8c 3f 94 89 76 3f f7 1b 5c 3f 02 f8 67 3f
       1.0995467 0.9630368 0.8598017 0.90612805

features.denseblock1.denselayer1.norm1.bias f4 [24]
000000 53 f0 de 3e 80 07 a7 3c 6f 4d 05 3e 9e 42 12 3e
       0.43542728 0.020389318 0.1301782 0.14283225
000010 fb e7 72 3e 26 66 84 3e 20 93 e7 bd 07 b2 3b 3f
       0.23721306 0.25859183 -0.11307359 0.73318523
000020 ec 09 47 3c 2c d6 1b 3f cc 5f cd bd cd 2f 55 3f
       0.012148362 0.60873675 -0.100280374 0.83276063
000030 64 14 43 3d 0c cf 4d 3e 5d 6c b4 3e d4 f7 be 3c
       0.047626868 0.20098513 0.35238925 0.023311533
000040 ae 1f dd bd 7c 87 70 3e 4f f9 97 3d ca 01 ae 3e
       -0.10797058 0.23489183 0.07420599 0.3398574
000050 69 05 5a 3f 93 e6 97 3c 6b fe 93 3d c2 3b 47 bd
       0.85164505 0.018542564 0.07226261 -0.048640974

features.denseblock1.denselayer1.norm1.running_mean f4 [24]
000000 a1 2c 52 3f d1 0e 5f 3f 9b 4f 46 3f 22 bd 3d 3f
       0.8209935 0.87131983 0.7746522 0.7411672
000010 80 42 49 3f 89 c4 52 3f 9b 31 10 3f 0d 06 64 3f
       0.78617096 0.8233114 0.5632569 0.8907173
000020 46 47 41 3f 02 de 67 3f 07 a6 44 3f f4 68 5f 3f
       0.7549938 0.9057313 0.7681584 0.8726952
000030 b7 b5 3d 3f 50 7f 5a 3f 73 ae 83 3f 86 d9 37 3f
       0.741054 0.85350513 1.0287613 0.7181629
000040 65 bb 2f 3f d6 a3 5b 3f 86 0e 40 3f 59 bb 72 3f
       0.68645316 0.8579687 0.7502216 0.9481712
000050 33 ac 58 3f a8 cd 36 3f d0 05 5e 3f 29 63 2f 3f
       0.84637755 0.71407557 0.8672762 0.6851068

features.denseblock1.denselayer1.norm1.running_var f4 [24]
000000 77 13 49 3f d9 0a 08 3f 12 e4 17 3f 5b d3 0a 3f
       0.78545326 0.5314155 0.5933238 0.5422875
000010 ee 29 1e 3f 15 29 50 3f bc 9d fb 3e 4a 65 63 3f
       0.6178273 0.81312686 0.4914378 0.8882643
000020 ca 6e 25 3f 5c 87 63 3f 6c 9a 25 3f b5 10 5c 3f
       0.64622176 0.88878417 0.64688754 0.8596299
000030 23 03 0b 3f 6d 55 2d 3f 09 bc 79 3f b3 3d 19 3f
       0.5430166 0.67708474 0.97552544 0.5985977
000040 c8 85 dd 3e 80 13 26 3f 90 18 06 3f 21 1b 43 3f
       0.4326613 0.64873505 0.5238123 0.7621327
000050 ae a7 61 3f 3d d0 c1 3e 1d ea d0 3e 89 9d 09 3f
       0.88146484 0.37854186 0.40803614 0.53756005

features.denseblock1.denselayer1.conv1.weight f4 [48, 24, 1, 1]
000000 52 11 3b be f6 44 dd be bf 7d b2 be 88 01 48 be
       -0.18268326 -0.43216676 -0.34861562 -0.19531834
000010 a7 19 0e be 48 0f 87 be b8 1d 13 bc 87 23 b5 3e
       -0.13876973 -0.26378846 -0.0089792535 0.35378668
000020 88 b8 54 3d b7 e1 b5 3e 23 61 1a 3f d4 d3 ed be
       0.051933795 0.3552377 0.6030447 -0.46450675
000030 9b 95 a5 3d 2a 49 e3 be 14 8d 4e 3d 04 f6 c8 3e
       0.080851756 -0.44391757 0.05042751 0.39250195
000040 f1 b1 2c 3f e8 33 25 3d a7 e3 b1 be b2 1e 0b be
       0.6745902 0.040332705 -0.34743997 -0.13585928
000050 9a 83 9d 3e 02 51 4b be 83 d5 12 be dc f2 28 3e
       0.30764467 -0.19855121 -0.14339261 0.16498893
000060 28 f6 c7 3e b3 72 a5 be e8 6f 95 bd 2f b2 25 bd
       0.3905499 -0.3231407 -0.07296735 -0.040453132
000070 33 c4 8b be b1 34 be 3e a2 35 ce be c1 dd 4c 3e
       -0.27298126 0.37149575 -0.40275294 0.20006467
000080 17 74 2c bb c8 e5 97 3e ed e6 be be 7d ef 35 3d
       -0.0026314312 0.29667497 -0.37285557 0.044417847
000090 70 96 9d 3e 76 91 ee be ae 74 ca be f2 96 2a be
       0.30778837 -0.46595353 -0.39542145 -0.16659144
0000a0 07 6e 8d 3e 25 11 6d be 97 c7 02 3f d6 10 46 bd
       0.27623007 -0.23151071 0.510858 -0.0483559
0000b0 a2 b6 d3 be 9e 4c ef ba 93 f3 fe 3c 8a 91 9f 3e
       -0.41350275 -0.0018257087 0.031122005 0.31165725
0000c0 d5 a7 10 3e 4e d5 10 3f 68 c9 19 3f ee ca 79 bb
       0.14126523 0.5657548 0.60072947 -0.003811534
0000d0 86 8b 87 bd a5 9b 86 be 8a b4 09 bf 80 61 12 3d
       -0.06618409 -0.26290622 -0.53791106 0.035737514
0000e0 9b c7 90 3d 37 b7 b8 be b2 30 5f 3e 49 ce d2 3d
       0.07069322 -0.36077282 0.2179592 0.10293252
0000f0 89 1f 16 bd c2 a0 2d bd c6 a5 b0 be f7 60 fe be
       -0.036651168 -0.04238964 -0.34501475 -0.49683353
000100 10 86 68 3e 06 73 15 be 1e 38 b3 be 7e ec c5 bd
       0.22707391 -0.14594659 -0.35003752 -0.09664248
000110 05 fa da 3c b9 12 52 be b4 69 08 bc 81 f5 f3 3e
       0.026730547 -0.20514955 -0.008325983 0.47648242
000120 44 dc 0e bf 4f 7f b6 be cf 7d b2 be 2c a2 15 3e
       -0.5580485 -0.35644004 -0.3486161 0.14612645
000130 d3 31 9f 3d fa 6d 98 3e 90 ed 18 be b8 f9 a6 3c
       0.07773175 0.29771405 -0.14934373 0.020382747
000140 05 3f 99 3e 85 cb 23 bf c1 4f 25 3f 55 29 06 3e
       0.29930893 -0.6398242 0.6457482 0.13101704
000150 07 10 01 bf ce 0c 3a be 7f 44 a9 bc 62 17 a8 be
       -0.5041508 -0.18168947 -0.020662544 -0.3283034
000160 87 d1 22 bd e9 91 08 be 30 04 88 be 77 17 b3 bb
       -0.039750602 -0.1333691 -0.26565695 -0.0054654437
000170 42 e2 18 be 61 41 af 3e f8 da 62 3e e6 83 27 bf
       -0.1493006 0.34229568 0.22153842 -0.65435636
000180 1f 0e 2f 3f ec c5 34 3e e5 27 15 be cd 93 03 3f
       0.6838092 0.17653626 -0.14566 0.513974
000190 f0 90 8c 3e ba fc 51 3e 41 02 9f 3e 82 22 7e bd
       0.2745433 0.20506564 0.31056407 -0.062044628
0001a0 31 76 bd 3d fc 25 b7 bd 5f 67 14 3e 49 4c 8c 3e
       0.09251059 -0.08942792 0.14492558 0.2740195
0001b0 48 bd b8 be c4 50 a4 3e d9 50 38 be 74 b8 12 3e
       -0.3608191 0.3209287 -0.17999591 0.14328176
0001c0 b1 09 55 3e 37 cc a5 be 1c c0 36 bc 96 e2 d9 3e
       0.20804478 -0.32382366 -0.011154201 0.42555684
0001d0 30 e7 c1 be be ec f4 bd 65 3b 66 bd 1b a8 3f be
       -0.37871695 -0.119592175 -0.056208987 -0.18716471
0001e0 b5 22 19 be 33 78 c9 bc 33 d4 9b be b7 34 5d 3d
       -0.14954646 -0.024593448 -0.30435333 0.05400535
0001f0 70 9d 3f bf 53 fe 6e 3e fd 9e d0 be 62 48 24 3e
       -0.74849606 0.23339204 -0.40746298 0.16043237
000200 32 ab 77 3e 83 fd 07 bd a5 18 93 be 60 a8 11 be
       0.241864 -0.033200752 -0.2872974 -0.14224386
000210 8b 23 8c 3e b5 ff 77 bd 6c 7d 49 be 10 27 76 3e
       0.27370867 -0.060546596 -0.19676751 0.24038339
000220 f2 23 e6 bd 3b c2 ac be d8 93 be 3e 8a e1 5a bc
       -0.11237325 -0.33741936 0.3722217 -0.013359437
000230 7b 7e 4e be 67 f0 1a 3e 3d 8d 0b be fe d4 52 3d
       -0.20165436 0.15130769 -0.13628097 0.051472656
000240 6f fe 2d be 58 43 fe 3d f9 31 7f be 7c 1b aa 3c
       -0.1699159 0.124151886 -0.24921407 0.020765059
000250 e5 41 39 be 9a 2b f8 3e 8a 83 a6 3e e8 83 aa 3e
       -0.18091543 0.48470765 0.3252223 0.3330376
000260 20 20 64 bd e7 64 18 3d 35 8a 6c be 66 81 63 3e
       -0.0556947 0.037205603 -0.23099597 0.2221733
000270 8b b9 a5 3d 23 c1 03 3e 7e 1a 08 bd 28 a8 1f be
       0.0809203 0.12866645 -0.03322839 -0.1559149
000280 a4 0c 6c 3d a8 17 fe be 34 71 fe 3d b5 e8 b0 bd
       0.057629243 -0.49627423 0.124239355 -0.08638135
000290 3b d4 ef be a1 bf 51 3d 0f c2 3b bb 8c 43 57 3e
       -0.46841606 0.051208142 -0.0028649603 0.21021861
0002a0 48 df 4b 3d 56 98 ee 3d 2a 94 79 3e df 71 81 be
       0.049773484 0.116501495 0.24372926 -0.2528219
0002b0 72 5e 7c be 4c ad c0 bd 52 be b2 3e 4c 0e b7 3d
       -0.24645403 -0.09408054 0.34910828 0.08938274
0002c0 4e 4c 42 bc 01 1a f7 bd f7 b0 ff be 1d 36 bd 3d
       -0.011859013 -0.12065507 -0.499397 0.09238837
0002d0 37 eb 4a 3e 1d 09 42 3e c8 75 17 be 59 cf da 3e
       0.1981629 0.18948789 -0.14791024 0.4273632
0002e0 8d 3f ad 3e 2e 1b 10 be bd 14 28 be b2 e6 7a 3e
       0.33837548 -0.14072868 -0.16414161 0.24502066
0002f0 ef 05 6f be b9 69 d9 be 74 52 43 3f b5 9c ac bd
       -0.23342107 -0.42463472 0.7629769 -0.08428327
000300 30 80 48 bb 88 55 4e bd ca 70 24 3e 22 15 10 be
       -0.0030593984 -0.050374538 0.1605865 -0.14070562
000310 c1 c6 99 3e 0e 80 b1 be f1 b7 54 3e 83 b7 df 3e
       0.3003445 -0.3466801 0.20773293 0.43694696
000320 02 1c e1 bc 79 74 9a be d8 c9 5e bd 0b 6c 4f bc
       -0.027479175 -0.30166987 -0.054391712 -0.012660037
000330 dd a8 e1 bd ee 8b 92 3d a4 88 97 bd e1 7b 40 3d
       -0.11018536 0.07155596 -0.07399109 0.04699314
000340 a4 c6 b9 3e ac 14 5d 3d a1 14 0f 3e 7b 48 7e 3c
       0.36284363 0.053974792 0.13972713 0.01552021
000350 44 01 86 3e 14 e4 e8 3e 29 2b 02 3f 87 91 e1 3c
       0.2617284 0.4548651 0.5084711 0.027535213
000360 3e 14 bb 3c c9 36 b4 3e 6f 6a e1 3e a1 8c a8 bd
       0.0228368 0.35198048 0.44026515 -0.08229948
000370 ea f3 2d bd c3 ad 37 be 83 30 ba be fd e2 f0 be
       -0.042468943 -0.17937379 -0.36365137 -0.47048178
000380 c7 49 d5 3c ea ec 01 3f 61 e7 3f 3e 0e e5 27 be
       0.026036156 0.5075213 0.18740608 -0.16395971
000390 ee 96 2b 3e 37 9e 0f 3f 5d 82 86 3d d4 1b 3e 3e
       0.16756794 0.5610079 0.065678336 0.18565303
0003a0 e7 f2 82 bd 40 93 18 3e d4 37 36 3c 55 e2 26 be
       -0.06393986 0.14899921 0.011121709 -0.16297276
0003b0 4f d9 8a bc 9b 57 b1 be e3 8a b7 be 57 2e b0 be
       -0.016949324 -0.3463715 -0.3584815 -0.34410354
0003c0 17 89 13 3f 3b 9d a6 be 0e dc f9 bc 72 11 af be
       0.5763106 -0.32541832 -0.030500438 -0.34192997
0003d0 7a b2 b0 3e 7b f6 f4 be fa 29 e3 be ce 53 ab 3c
       0.34511167 -0.478443 -0.44367963 0.020913985
0003e0 90 de 2f 3d 62 b7 a2 3e 42 1c d6 3e c6 d3 b7 3e
       0.04293686 0.31780535 0.41818434 0.35903758
0003f0 cf f5 d5 be f6 e2 8a 3e ff b3 1b bc 2d 73 3b be
       -0.417891 0.27126282 -0.009503364 -0.18305655

features.denseblock1.denselayer1.norm2.weight f4 [48]
000000 fb 4e 73 3f ab f5 86 3f 29 f2 6d 3f 43 24 7c 3f
       0.9504239 1.0543722 0.9294763 0.9849283
000010 f8 ed 8c 3f 48 43 80 3f 53 be 8d 3f 9e 5d 79 3f
       1.1010122 1.0020533 1.1073707 0.97408473
000020 28 94 73 3f 85 0d 7d 3f 33 d4 78 3f 52 50 85 3f
       0.95147943 0.98848754 0.9719879 1.0415137
000030 e5 e1 80 3f 6a c1 87 3f 5d 1d 81 3f cc 9e 88 3f
       1.0068938 1.06059 1.0087086 1.0673461
000040 5a d4 82 3f 0b 43 82 3f 4d 34 76 3f f1 52 6f 3f
       1.0221055 1.017671 0.96173555 0.93485934
000050 64 29 7e 3f 53 cb 7c 3f 6e cb 84 3f c4 c0 8b 3f
       0.9928191 0.9874775 1.0374582 1.0918202
000060 9f 17 7f 3f f0 1c 7d 3f 09 0b 7a 3f 39 23 84 3f
       0.9964542 0.9887228 0.9767309 1.0323249
000070 c0 d7 6b 3f a0 75 80 3f 6b 06 81 3f 67 cb 6b 3f
       0.92126083 1.0035896 1.0080084 0.9210724
000080 f7 50 7d 3f ce 42 74 3f 48 34 88 3f a6 c6 80 3f
       0.9895167 0.95414436 1.0640955 1.0060623
000090 47 be 7d 3f 04 d4 84 3f 6e 4a 63 3f c8 5d 7e 3f
       0.99118465 1.0377202 0.88785446 0.9936185
0000a0 59 e6 6f 3f 84 94 7a 3f 40 1b 6a 3f 21 25 8c 3f
       0.9371086 0.97882867 0.9144783 1.0948831
0000b0 b0 9c 81 3f 4c c8 6d 3f 3f bd 7c 3f fc 69 8a 3f
       1.0125942 0.92883754 0.98726267 1.0813594

features.denseblock1.denselayer1.norm2.bias f4 [48]
000000 7d 60 40 bc 2b 13 01 3e b7 13 06 bc 13 2b 93 bd
       -0.011741755 0.12604968 -0.008183411 -0.0718595
000010 cd e3 e1 bc 19 d6 42 bd e2 0d 91 bd 0c f3 e2 bd
       -0.027574444 -0.04756746 -0.07082726 -0.11081514
000020 ed eb b8 ba 25 fd 75 bd 0a 45 68 3c 70 9a bc 3c
       -0.0014108397 -0.06005587 0.014176616 0.02302286
000030 6c b8 92 bc 22 29 d8 3c e6 5d f5 bc db 6c fc bc
       -0.017910205 0.026386801 -0.029952 -0.030813625
000040 31 89 2f 3c c0 10 7d bb 52 7f d3 bb 93 fa 9c bd
       0.010713861 -0.003861472 -0.0064543867 -0.07664981
000050 6c 31 30 bd 87 cd 92 bd aa 5d 04 3d 78 4d b8 3d
       -0.043015882 -0.071681075 0.032315888 0.08999151
000060 c1 42 fc 3c 20 c3 6e bd 25 a9 b0 bc cd 67 4c 3e
       0.03079355 -0.058291554 -0.02156503 0.19961472
000070 a9 76 43 bd 21 30 0f 3d ca 01 6a 3d 44 73 61 bd
       -0.047720585 0.03495801 0.057130612 -0.055041566
000080 ec 06 88 3d 7b cb 27 3d 7d 71 29 3d 6a 16 f8 bb
       0.06641945 0.04096554 0.041367996 -0.0075710313
000090 f7 66 32 bd f3 4c d2 bd 6f ce 04 be 45 60 9a 3c
       -0.043555226 -0.10268583 -0.12969373 0.018844733
0000a0 51 9e 42 bd 09 ab 3b 3c 66 39 1b be 51 32 16 3d
       -0.047514264 0.011454352 -0.15158615 0.03666908
0000b0 d3 ee 8a 3d 24 0f 49 bd 4b f2 9b bc 58 49 16 3d
       0.06783833 -0.049086705 -0.019036433 0.03669104

features.denseblock1.denselayer1.norm2.running_mean f4 [48]
000000 1a c9 60 be 6d e6 3d be 5f 34 6b be 63 be 96 bf
       -0.21951714 -0.18544932 -0.22969197 -1.1776851
000010 ad 0b 3c 3f 7e f3 3d bf 24 72 a7 bd 15 c3 09 3e
       0.73455316 -0.74199665 -0.081760675 0.13453324
000020 29 52 71 3f 11 d0 0e bb f9 0f 0a 3f b9 d3 c6 3e
       0.9426599 -0.0021791498 0.5393062 0.38833407
000030 b0 16 70 bf aa 76 38 be e5 d0 ac 3e b8 98 88 be
       -0.9378462 -0.18014017 0.33753124 -0.26679015
000040 49 7e 01 be 93 40 ec be c9 5d b2 be 8e e2 32 be
       -0.1264583 -0.46143016 -0.34837177 -0.17469236
000050 2e 4a 2b 3f d5 46 04 3f c3 d2 00 3f c6 ff 8c 3e
       0.66910064 0.5167058 0.50321597 0.2753889
000060 a6 c3 b6 be 67 53 70 be 2c f3 cd be 9c ac 3e 3e
       -0.35696143 -0.23469315 -0.40224588 0.18620533
000070 43 8e 25 3e 36 cb d7 bf d0 b2 0a bf 40 e8 15 bf
       0.1616755 -1.685889 -0.54179096 -0.5855751
000080 86 f3 8d be 5b 18 9f 3f e5 dc 75 bc a8 b5 a6 bf
       -0.27724856 1.2429308 -0.015006279 -1.3024187
000090 5e 96 2c bf 9e 82 42 bf 05 cd 33 3f e6 18 f1 be
       -0.6741694 -0.75980556 0.7023471 -0.47089309
0000a0 91 e3 0c be c1 e5 8f be 0c f3 15 bf b3 f6 d4 be
       -0.13758685 -0.28104976 -0.58573985 -0.41594467
0000b0 f6 f5 98 be 85 7d 11 3e b7 92 35 bf 45 9b 33 bf
       -0.29875153 0.14208038 -0.70926994 -0.701588

features.denseblock1.denselayer1.norm2.running_var f4 [48]
000000 31 d3 b0 3f 62 1e 47 3f b2 2b da 3e 04 66 a2 3f
       1.381445 0.77780735 0.42611462 1.2687383
000010 c8 db 6e 3f 71 16 65 3f 11 3b b6 3f 17 8e de 3e
       0.9330411 0.8948737 1.4236776 0.4346778
000020 b2 31 24 3f b3 f8 fe 3e 04 e6 a7 3f 56 d9 5a 3f
       0.6413833 0.49799117 1.311707 0.8548788
000030 e5 72 3d 3f 7e 4e 08 40 8e 39 05 3f 44 e5 b1 3f
       0.7400344 2.1297908 0.52040946 1.3898091
000040 ff ae 8e 3f 99 36 07 3f 03 61 7b 3f 79 36 88 3f
       1.1147155 0.52817684 0.98194903 1.0641624
000050 55 90 85 3f f7 36 26 3f 78 2a e0 3f 79 74 0e 3f
       1.0434672 0.6492762 1.751296 0.55646473
000060 e0 91 be 3f cf 55 4e 3f 7e 75 08 3f fa 14 05 3f
       1.4888268 0.80599684 0.5330428 0.5198513
000070 ee 61 6d 3f 96 20 38 40 e6 60 5a 3f a4 58 05 3f
       0.92727554 2.876989 0.85304105 0.5208838
000080 87 ff b3 3f 4f 6a 9d 3f ad 33 96 3f 1b cc ca 3f
       1.4062356 1.2298068 1.173452 1.5843538
000090 08 17 af 3f 75 66 9b 3f 7c 83 37 3f e3 18 57 3f
       1.3678904 1.2140642 0.71685004 0.8402235
0000a0 63 33 e3 3e f2 59 87 3f 45 68 63 3f 9e c7 d1 3e
       0.44375142 1.0574324 0.8883098 0.40972608
0000b0 ef ff 33 3f 6d 11 2d 3f 90 7c df 3f f0 9f 25 40
       0.703124 0.67604715 1.7459888 2.5878868

features.denseblock1.denselayer1.conv2.weight f4 [12, 48, 3, 3]
000000 89 d4 37 3d b6 aa ca bd 55 2f f4 3c f9 fb 7e 3d
       0.044880424 -0.09895842 0.029807726 0.06225202
000010 1a 85 ae bd e1 d3 01 be 02 47 6c 3d b0 6d b8 3d
       -0.08521481 -0.12678482 0.057684906 0.09005296
000020 56 79 ce 3c ad d5 a8 bd ca 08 ca 3c 72 04 6f bd
       0.025204342 -0.082438804 0.024662394 -0.05835385
000030 47 aa ab 3c c3 78 b7 bd 6c 53 72 bd 7b 81 71 bd
       0.020955218 -0.0895858 -0.05916159 -0.058961373
000040 32 34 1d 3c ea 58 52 3d 72 00 09 ba 0d b5 8a 3c
       0.009594964 0.051354326 -0.00052262016 0.016932035
000050 5e 0d 8a 3d 7d ba da bd 12 91 bc bd e4 c7 a2 bb
       0.06740831 -0.10680101 -0.092073575 -0.0049676765
000060 14 36 c2 bd a7 15 0c be d6 63 24 3b c3 a7 0f 3c
       -0.09482971 -0.13680135 0.002508392 0.008768025
000070 a9 06 86 bd 0a cb 22 be 9e 83 61 3d 23 25 80 3d
       -0.06544239 -0.15897766 0.05505716 0.06257083
000080 8d 84 ef bd 09 1c 02 3e 1f 62 2f 3d b3 5a 8e bd
       -0.11695204 0.12706007 0.042818185 -0.06950893
000090 f1 09 49 bd 18 c8 fa 3d 4a 42 86 3e 58 75 7e bd
       -0.049081746 0.12245196 0.2622245 -0.062123626
0000a0 01 35 d2 bc cb c7 09 3e 3f 4a 9b bd 9a 84 06 be
       -0.02566004 0.13455121 -0.07582521 -0.13136521
0000b0 5f f1 1c bd 4b 1d eb 3d ad d3 41 3d 90 16 c7 bb
       -0.038316127 0.114801966 0.04732101 -0.0060756877
0000c0 d1 38 bf 3d 63 5f a0 3d 05 4d 75 3d fd 99 1f 3e
       0.09337009 0.078306936 0.059887905 0.15586086
0000d0 b6 c1 18 3e ba 02 e7 3b 9e df 98 bc d0 6f 17 bd
       0.14917645 0.0070498856 -0.018661316 -0.036971867
0000e0 57 29 fc 3c 57 cf d9 3c ea 5e e2 bc 11 15 2d bd
       0.030781431 0.026588125 -0.02763315 -0.04225642
0000f0 4b ae 5f bd 84 84 99 bd b4 43 00 bc 71 60 56 bd
       -0.054609578 -0.074959785 -0.007828642 -0.052338067
000100 37 97 2a be c7 cb b4 bd 5d 66 15 bb d0 fe 43 bc
       -0.16659246 -0.0882793 -0.002279661 -0.0119626075
000110 c8 4e a3 bc e1 8e 91 3d c6 17 91 3d ae 36 1a 3e
       -0.019935027 0.0710733 0.070846125 0.15059921
000120 41 6e a5 3d c3 7f a3 3d cd 1e 91 3d f7 a1 0d 3e
       0.0807767 0.07983353 0.07085953 0.13831316
000130 1d 34 20 bd 98 f7 bb 3d cc 4a 87 bd 34 85 b8 bd
       -0.0391122 0.09178084 -0.06606063 -0.090097815
000140 5e 76 a5 bd aa be 32 bd e3 e0 c8 3c cf b4 70 bd
       -0.080792174 -0.043638863 0.024521297 -0.058766183
000150 4b 43 c2 bd ad b1 ab 3c c6 09 83 3a 39 af 66 3d
       -0.09485491 0.020958746 0.000999742 0.05631945
000160 8e 07 a7 bd ec c4 aa 3d bb 75 d8 bb ad a5 b9 3c
       -0.08155738 0.08338341 -0.0066058314 0.022662008
000170 02 24 db 3d 18 74 16 3d da 3c 95 bd c3 9c ae 3d
       0.10700227 0.03673181 -0.07286997 0.08525994
000180 70 97 35 be ec c1 d1 bc 69 c4 0c be c4 5d 4c bc
       -0.1773355 -0.025605164 -0.137468 -0.012473527
000190 d4 fa 8a bd ec ac 46 3c 5d be 6f bd 1f c2 62 be
       -0.06786123 0.012126189 -0.058531154 -0.22144364
0001a0 2c 3f 21 3d 82 70 40 3d 57 12 17 bd 85 44 a5 3c
       0.039366886 0.046982296 -0.036882725 0.020174274
0001b0 e4 3d b0 bc 68 74 3e be 59 99 36 bc e6 b6 b7 bc
       -0.021513887 -0.18599093 -0.011144959 -0.02242608
0001c0 ba 0a 91 3d 42 69 be 3c f1 dd 8a bb 35 aa 0c 3d
       0.07082124 0.02324355 -0.0042378833 0.03434201
0001d0 6b 16 92 3d 07 02 76 bd fd 16 04 bc 3a 3a 0d bd
       0.07133182 -0.060060527 -0.008062121 -0.034479357
0001e0 68 71 73 bd fa be a1 3d 9e 08 8a bd 69 49 54 bd
       -0.059434325 0.07897754 -0.06739925 -0.051827822
0001f0 eb 5d 34 3d c1 ba 13 3d f7 77 01 be 5d 10 07 bc
       0.04403488 0.036066774 -0.12643419 -0.008243647
000200 f9 3e 85 3e 1f 19 a2 bd 01 0c a0 bd a7 b2 28 3e
       0.26024607 -0.07914948 -0.078147896 0.164744
000210 31 7d 39 bd 71 4c a8 bd c0 3a 2b 3d ea d3 19 be
       -0.045285407 -0.08217705 0.041804075 -0.15022245
000220 72 8b 09 3d 48 26 1b 3e 46 59 96 bd 6a 6a 31 bd
       0.03358025 0.15151322 -0.07341246 -0.043314375
000230 d5 84 8f bc d7 c0 3d be 95 01 e2 bd 75 31 9c bd
       -0.017519394 -0.18530594 -0.11035458 -0.07626621
000240 0d ce 0a 3d 73 f9 00 bc a4 68 c9 3d e4 f6 4a bd
       0.03388791 -0.007871973 0.09834412 -0.04955186
000250 f3 5a 49 bd 27 0c 00 bd f2 c5 8a bd 2c 8d cb 3c
       -0.049159 -0.03126159 -0.06776036 0.02484759
000260 c6 7f 94 bb 5e e3 c6 bc 6a 72 80 bd 77 cc 0b ba
       -0.0045318333 -0.024278339 -0.06271823 -0.0005332897
000270 d3 89 d3 3d 02 e2 47 bc 5e fe 20 3d ef cc 19 3d
       0.10329022 -0.012199881 0.039305083 0.037548956
000280 59 05 cd bd ff f3 2c 3d b2 05 04 be df 79 3c 3e
       -0.100107856 0.04222488 -0.12892798 0.18405865
000290 19 b3 3a 3d 87 81 3e be 6c 8e b4 bd a1 b9 39 bc
       0.045580957 -0.18604098 -0.08816227 -0.011335761
0002a0 31 05 71 bc c2 86 15 3d ba b4 3a 3d 98 49 b5 3d
       -0.01471071 0.03650547 0.04558251 0.088519275
0002b0 18 8b 42 be f2 84 5c be 15 a7 5a 3d 38 91 e2 3b
       -0.18998373 -0.2153509 0.053381998 0.006914284
0002c0 05 12 22 bd 59 84 1c 3d a1 b5 49 bc 0b b7 10 bd
       -0.039567966 0.038212154 -0.01231137 -0.035330813
0002d0 aa 51 b6 3d bd a0 36 3e ae 01 67 3e ee 14 a7 3c
       0.08902295 0.17834754 0.22559234 0.020395722
0002e0 76 a2 a3 3d 2f 93 74 bc 6d e2 ef bc b9 ad cd bd
       0.07989971 -0.014927669 -0.029282773 -0.100429006
0002f0 37 d2 48 be 5e e1 af bd 74 21 35 3e b8 e7 21 3e
       -0.1961144 -0.08587907 0.17688543 0.1581105
000300 0e f7 24 bd 27 73 18 be b4 4e 0d 3e 4d 7c a6 bd
       -0.040274672 -0.14887677 0.13799554 -0.08129177
000310 20 d1 93 bd 2e de bd bd 06 b3 86 bd a3 5b 00 3e
       -0.07217622 -0.09270893 -0.06577115 0.12534957
000320 4e fe 67 3e a9 45 c1 3d ff 65 16 3d a4 ca 4d bd
       0.22655603 0.09437115 0.036718365 -0.05024208
000330 34 02 5d bd 32 69 5e 3d 41 ba 76 ba 04 93 d8 3d
       -0.05395718 0.05429954 -0.0009411909 0.10574916
000340 91 a3 ac bd a4 cb ed bd 29 7d 65 3d 30 48 52 bc
       -0.08429635 -0.11611107 0.056027565 -0.012834594
000350 85 7a 1b 3d 85 95 f1 3d 9d 8d a8 bd 17 2d 1d be
       0.03795864 0.11796097 -0.082301356 -0.15349232
000360 62 62 6c bd ba 6a e2 bd e4 95 0b bd 3b 11 e6 3d
       -0.057711013 -0.11055513 -0.034078494 0.11233755
000370 a4 84 0d bd 78 0f bf 3c 2f cb 1f 3e 2b a8 a7 bd
       -0.034550324 0.023322806 0.15604852 -0.08186372
000380 b7 30 36 3d 43 c7 ad 3c 77 7c da bd 07 7e 12 bd
       0.04448005 0.02121318 -0.10668271 -0.03576472
000390 03 c7 cb 3d 4c 05 d6 3d 92 e4 d9 bd 25 0b 57 3d
       0.09950068 0.10450229 -0.106392995 0.052500863
0003a0 22 c2 a5 3b 13 86 bd 3d 03 e1 1a be 35 82 12 be
       0.005058543 0.09254088 -0.15124898 -0.14307483
0003b0 eb a2 50 be 7c e8 20 bd 01 6d df bb 99 69 11 bc
       -0.20374648 -0.039284214 -0.006818414 -0.008875274
0003c0 30 ce bb bc ac 31 3f bd 12 de 3b bd a7 67 b4 3d
       -0.022925466 -0.04667823 -0.04586608 0.088088326
0003d0 3b 31 e1 3d b7 36 11 3e 39 39 71 bd d5 44 db 3d
       0.10995718 0.14181028 -0.058892462 0.10706488
0003e0 14 e1 0c bd a3 9c 23 bd 9c 2c 47 3c 71 9f d0 bd
       -0.03439434 -0.039944302 0.012156632 -0.10186661
0003f0 fc 5a 55 3d 7d d7 8e bd a3 5a a5 3c ae e4 ba bd
       0.052088723 -0.06974695 0.02018482 -0.091256484

features.denseblock1.denselayer2.norm1.weight f4 [36]
000000 5c f9 87 3f 4b 63 61 3f 46 81 82 3f 3b 83 6b 3f
       1.0622973 0.88042134 1.0195701 0.91997117
000010 e6 68 81 3f 44 d1 85 3f 03 56 77 3f 96 9c 87 3f
       1.0110137 1.0454488 0.9661562 1.0594661
000020 89 f8 66 3f 98 7a 79 3f 36 34 5d 3f 22 89 6f 3f
       0.90222985 0.9745269 0.8640779 0.93568623
000030 22 7f 72 3f 20 7e 57 3f 4c 49 64 3f f3 c7 62 3f
       0.9472524 0.84176826 0.8917434 0.8858635
000040 6e 6b 67 3f 96 ec 86 3f 8d 4e 64 3f 6d 49 7f 3f
       0.903983 1.054095 0.8918236 0.99721414
000050 0f df 8b 3f 64 16 7e 3f e4 e3 5a 3f ad 68 86 3f
       1.0927447 0.99252915 0.85503983 1.0500695
000060 3a c0 83 3f eb d5 75 3f 38 1a 95 3f 30 70 71 3f
       1.0293038 0.9602954 1.1648626 0.9431181
000070 2b cb 83 3f 70 3f 7f 3f e9 33 83 3f d9 3d 79 3f
       1.0296377 0.9970617 1.0250217 0.9736
000080 e2 c4 84 3f e7 96 72 3f ed 74 85 3f ce 25 84 3f
       1.0372584 0.9476151 1.0426308 1.0324037

features.denseblock1.denselayer2.norm1.bias f4 [36]
000000 ab 67 16 3e 28 e3 78 3d 85 26 5d 3e 0f a3 6d 3d
       0.14687984 0.060763508 0.21596725 0.058016833
000010 42 98 a9 3d e4 ac dc 3d 50 76 8d bd 0b 01 d1 3e
       0.08280994 0.10775164 -0.06907332 0.40821108
000020 32 f9 8d 3c 84 d5 0d 3f 0e f5 8a bd ec 0e 88 3e
       0.01733074 0.55403924 -0.06785022 0.26573884
000030 fd d3 a5 3d d8 2b 0f be d2 56 2a 3f 57 07 83 bd
       0.08097074 -0.13981569 0.6653873 -0.06397884
000040 56 90 45 bd 1f 72 16 3b b2 8b 8c 3c c4 5b b6 3e
       -0.048233353 0.0022956205 0.017156456 0.35616887
000050 ed b6 fa 3e 84 bc 12 3e ab d9 e0 3d 1c 09 bc 3d
       0.48967686 0.14329726 0.10979017 0.09181425
000060 53 7e fd bc 2f 6c 2a 3d 1d 4b ec 3d 4e 68 d4 bd
       -0.030944025 0.04160708 0.11537764 -0.10371457
000070 e9 44 03 3e f4 43 40 3d 2b 62 0e 3e 34 a1 86 bc
       0.12819256 0.046939805 0.13904636 -0.01643429
000080 3c 9e 19 bd 7c 9d d2 bc 72 55 29 3d b7 00 1b 3c
       -0.03750442 -0.02570986 0.041341253 0.00946062

features.denseblock1.denselayer2.norm1.running_mean f4 [36]
000000 a1 2c 52 3f d1 0e 5f 3f 9b 4f 46 3f 22 bd 3d 3f
       0.8209935 0.87131983 0.7746522 0.7411672
000010 80 42 49 3f 89 c4 52 3f 9b 31 10 3f 0d 06 64 3f
       0.78617096 0.8233114 0.5632569 0.8907173
000020 46 47 41 3f 02 de 67 3f 07 a6 44 3f f4 68 5f 3f
       0.7549938 0.9057313 0.7681584 0.8726952
000030 b7 b5 3d 3f 50 7f 5a 3f 73 ae 83 3f 86 d9 37 3f
       0.741054 0.85350513 1.0287613 0.7181629
000040 65 bb 2f 3f d6 a3 5b 3f 86 0e 40 3f 59 bb 72 3f
       0.68645316 0.8579687 0.7502216 0.9481712
000050 33 ac 58 3f a8 cd 36 3f d0 05 5e 3f 29 63 2f 3f
       0.84637755 0.71407557 0.8672762 0.6851068
000060 b4 ab 46 bf 3e ad 98 bf b6 1e f7 3d 90 78 64 3f
       -0.7760575 -1.1927869 0.120664045 0.89246464
000070 1c 61 cd bf 02 c8 12 3e d0 b3 c3 bf 41 3c 2a bc
       -1.604526 0.1433411 -1.528925 -0.010390342
000080 23 17 62 3d b6 41 00 c0 41 63 3a bf 90 92 83 3e
       0.055197846 -2.0040107 -0.728077 0.25697756

features.denseblock1.denselayer2.norm1.running_var f4 [36]
000000 77 13 49 3f d9 0a 08 3f 12 e4 17 3f 5b d3 0a 3f
       0.78545326 0.5314155 0.5933238 0.5422875
000010 ee 29 1e 3f 15 29 50 3f bc 9d fb 3e 4a 65 63 3f
       0.6178273 0.81312686 0.4914378 0.8882643
000020 ca 6e 25 3f 5c 87 63 3f 6c 9a 25 3f b5 10 5c 3f
       0.64622176 0.88878417 0.64688754 0.8596299
000030 23 03 0b 3f 6d 55 2d 3f 09 bc 79 3f b3 3d 19 3f
       0.5430166 0.67708474 0.97552544 0.5985977
000040 c8 85 dd 3e 80 13 26 3f 90 18 06 3f 21 1b 43 3f
       0.4326613 0.64873505 0.5238123 0.7621327
000050 ae a7 61 3f 3d d0 c1 3e 1d ea d0 3e 89 9d 09 3f
       0.88146484 0.37854186 0.40803614 0.53756005
000060 33 7b ff 3f a3 62 1c 40 7f 76 1a 40 0f 89 2b 40
       1.9959472 2.4435203 2.4134824 2.6802404
000070 5f 88 1c 40 4e b6 26 40 8b a7 f1 3f 1e d6 fc 3f
       2.4458234 2.604877 1.8879255 1.9752843
000080 da a6 4b 40 24 d1 be 3f 57 30 29 40 8a 6e 1a 40
       3.1820588 1.4907575 2.6435754 2.4129968

features.denseblock1.denselayer2.conv1.weight f4 [48, 36, 1, 1]
000000 0e 2b 97 be 39 a8 a3 be 29 ce 99 bd 71 2d 56 3e
       -0.29525036 -0.3196428 -0.07510025 0.20915772
000010 d8 04 8a bd 45 ab 4c 3c 59 64 16 bf 10 5a 84 3e
       -0.06739205 0.012492006 -0.5874687 0.25849962
000020 fe 8e 9f 3d 49 b1 01 bd db 95 56 be 37 a4 17 bd
       0.077909455 -0.031663213 -0.20955603 -0.03702184
000030 6b b8 51 be 21 15 08 3e 2e fb 4e bf 24 a5 3b 3e
       -0.20480506 0.1328931 -0.8085202 0.18324715
000040 41 c4 21 3e 84 36 59 bc a2 35 67 3c 44 7e 0d 3d
       0.15797521 -0.013257626 0.014111908 0.034544244
000050 b9 98 0a 3f 8f a5 91 3e b2 8d 47 3c 38 5a 5b be
       0.54139286 0.28446624 0.012179779 -0.21421134
000060 38 15 ca 3d 02 b2 68 3e 47 55 8b 3d fe 86 1e be
       0.098673284 0.22724155 0.06803375 -0.15481183
000070 9e 30 c1 3e db 5d 9c bd b5 66 90 3e 76 51 c5 be
       0.37732404 -0.07635089 0.2820336 -0.38538712
000080 fc e6 72 3d bc 15 f7 bd d2 83 1c be cb 3e 9f 3c
       0.059302315 -0.120646924 -0.1528466 0.019439122
000090 1d 46 1a 3e e9 a1 6b 3e d0 ff 92 bd ca 4c 95 3e
       0.15065809 0.23010983 -0.071776986 0.29160148
0000a0 b6 cb 1c 3f 7c 31 b8 3e d0 e6 86 3e e5 0b e3 be
       0.6124834 0.35975254 0.2634797 -0.44345012
0000b0 b6 de 1e 3e 87 4d e7 bd 30 8e 88 bd a2 f9 cb 3d
       0.15514645 -0.11294084 -0.06667745 0.09959723
0000c0 5f 61 19 3f 3e 93 d9 3b ff 9f b4 bd 0b b7 9a 3e
       0.599142 0.006639867 -0.08819579 0.30217776
0000d0 9c 6f 88 3e 15 34 48 be 10 3c d3 be d2 81 32 bd
       0.2664765 -0.19551118 -0.41256762 -0.043580838
0000e0 2f 26 02 be 20 52 d0 3d 07 dd 86 3e 91 fa a3 3e
       -0.12709878 0.10171914 0.26340505 0.32027104
0000f0 f3 37 a0 3d 85 16 6c be 09 dc c2 bd 1e 9d 8b be
       0.078231715 -0.23055466 -0.095146246 -0.27268308
000100 3b c6 5f 3e 14 0a c6 3c b1 02 5b 3e a9 24 87 bd
       0.21852963 0.024174727 0.21387745 -0.06598789
000110 a2 51 ae 3d bc 5d 5f be 4f dc 58 be 0b 1f 0d 3f
       0.08511664 -0.218131 -0.21177791 0.5512549
000120 cb 27 0e bf 0c 83 39 be 50 7f 44 bd bc 44 99 3d
       -0.5552947 -0.18116397 -0.047972977 0.07483813
000130 3a 10 c9 3d 66 4f 74 be 9c 68 24 3e 81 98 c2 bd
       0.09817548 -0.23858413 0.1605553 -0.09501744
000140 5a 85 6f bd f5 1b 73 bd a1 28 d9 3d 44 60 ce be
       -0.058476783 -0.059352834 0.106034525 -0.4030782
000150 30 70 7b 3c 02 40 4f bd 44 d3 41 3e 17 de af 3e
       0.015346572 -0.050598152 0.18928248 0.3434913
000160 5d cd 40 3e f6 89 d8 bc 99 39 92 3c d2 45 1b 3e
       0.1882834 -0.026432972 0.01784973 0.15163353
000170 58 78 89 3e e3 a7 13 bc af 75 55 bd 42 48 0e 3d
       0.26849627 -0.009012195 -0.052114185 0.03473688
000180 dd e6 59 3b 62 6f b5 be 1a fe 7a 3e 7b 8e f8 3e
       0.0033249178 -0.3543654 0.24510995 0.48546204
000190 dd 0e 92 3d ae 66 75 be 9f 7a d7 3e a5 98 0c 3e
       0.07131741 -0.2396495 0.4208574 0.13730104
0001a0 ee 52 2e 3d 71 f1 55 bd bc bb d8 3e 84 b1 2e be
       0.042559557 -0.05223221 0.4233073 -0.17059904
0001b0 2b 54 1f bf 73 52 a3 be 51 8b 34 3f 57 66 02 bf
       -0.62237805 -0.3189884 0.7052508 -0.5093741
0001c0 68 56 c9 3e 82 43 33 3e 82 e2 0c 3c cc 34 76 3d
       0.39323735 0.17506221 0.008598926 0.060108945
0001d0 e8 1f 64 3e da 72 93 be a7 77 86 be a8 47 31 bc
       0.22277796 -0.28798562 -0.26263162 -0.010820307
0001e0 c9 ac 87 3e e3 dd cd 3d 35 58 f7 3e 6f 20 8f bd
       0.26499012 0.10052087 0.48309484 -0.06988608
0001f0 cc 84 03 3b 6e 1e 39 be b0 1b 5f 3d 10 b3 c5 3d
       0.0020068167 -0.18078014 0.054469764 0.09653294
000200 7d cb da bd 61 8c 2c 3d 73 8b 8c be b8 39 25 be
       -0.106833436 0.042126063 -0.2745014 -0.16135299
000210 3b 28 f1 bc 8d 9c b3 bd b5 cd 92 be ca db 4d be
       -0.029438129 -0.08770094 -0.28672567 -0.20103374
000220 57 95 a7 3e a7 86 d2 bd ca f0 9e 3d 44 3d 87 be
       0.32731125 -0.10279589 0.077607706 -0.2641393
000230 7a 84 6d 3d 89 04 c1 3c e3 5e 40 3e 98 72 b1 be
       0.057987668 0.023561733 0.18786196 -0.3465774
000240 8f 68 0f 3e 93 bc 5f 3e 1b 87 a5 3d 35 c3 54 3e
       0.1400473 0.21849279 0.0808241 0.2077759
000250 31 8b cd 3e 05 8e c4 3d 6f 85 0f be 69 77 83 be
       0.40145257 0.095974006 -0.14015745 -0.2567704
000260 e0 4f 98 bd 76 49 b8 3e e8 a8 06 3e 06 dd af be
       -0.0743711 0.35993546 0.1315037 -0.34348315
000270 ed 2f 86 bd b1 94 2e be 01 1a 2e be a1 d3 fa 3d
       -0.0655211 -0.17048909 -0.17002107 0.12247396
000280 5f a6 02 3e e6 db 51 3d a8 6a b7 bd 52 6c 9f be
       0.12758778 0.051235102 -0.0895589 -0.3113733
000290 da 69 b0 3d 8e 81 64 3e 1a ff ed be 8d f6 2e 3d
       0.086139396 0.22315046 -0.4648369 0.042715598
0002a0 ac f0 da bc d2 6d e7 3e 51 38 9c 3e 6e 07 b1 be
       -0.02672609 0.45200974 0.30511716 -0.3457598
0002b0 e1 d4 e6 bd e1 62 b6 be 64 87 c4 bd 41 fe c1 bd
       -0.11271072 -0.35622314 -0.09596136 -0.09472323
0002c0 4f 21 19 3e 21 99 e0 bd 02 6d da 3d c5 2e fe bd
       0.14954112 -0.10966707 0.10665323 -0.12411264
0002d0 a4 c9 89 be 32 81 71 3e d0 ad 15 3d 5a 23 c7 be
       -0.26911652 0.2358444 0.036542714 -0.3889416
0002e0 7d 8e f0 3d 82 ff ca 3d 01 5e 26 be 2f bd b3 bd
       0.117459275 0.099120155 -0.16246797 -0.08776318
0002f0 87 3b 77 bd 3a 5a b2 3c 30 04 d9 3e 9a 82 9b be
       -0.060359504 0.021771539 0.42386007 -0.3037308
000300 84 4e f3 bd 0e a2 d1 ba 51 26 2e 3e 6c f0 99 3d
       -0.1188021 -0.0015993731 0.17006804 0.0751656
000310 44 5d ee 3d 03 d5 36 3d ed 7a 05 3d 66 ff 5d 3e
       0.11638883 0.044636738 0.032587934 0.21679458
000320 58 61 0d 3e 62 5b e9 3e b4 e7 43 be 9c ff a1 bc
       0.13806665 0.45577532 -0.19131356 -0.019775204
000330 ec d0 bc be 0b 9c 99 be ee b5 7c 3d 4a 1c 9d 3e
       -0.36878145 -0.30001864 0.06169694 0.30685645
000340 0b 42 1a 3d 89 6c 6f 3d 01 7b b8 3e 8e 2e 39 bd
       0.03766064 0.058453117 0.36031345 -0.045210414
000350 63 e7 c7 3e 9b 3a 70 3e af 00 6a 3e c9 c2 c7 3d
       0.39043722 0.23459856 0.22851823 0.09753949
000360 d2 87 ad bd 05 fa 0c bd c3 24 1f be b2 f8 c1 bc
       -0.08473171 -0.034418125 -0.15541367 -0.023678157
000370 79 ad 01 bd 61 84 27 3e eb f8 51 be f5 2b 84 bd
       -0.031659577 0.16359092 -0.20505111 -0.06453697
000380 fb 7b 67 bd e4 dd 22 bf 0f 28 11 be 0d ec 88 3e
       -0.05651472 -0.6361983 -0.14175437 0.26742592
000390 a5 ce 07 be a2 40 10 ba 53 97 e1 3d a8 f0 73 be
       -0.13262422 -0.0005502795 0.11015191 -0.23822272
0003a0 9a c1 fb be c5 14 80 be 97 47 46 bc c4 bc ca bc
       -0.49171144 -0.25015846 -0.012102029 -0.024748214
0003b0 55 43 e1 3d 2c 09 34 3e b5 4a d2 3d bd 75 ed 3d
       0.10999171 0.17581624 0.102681555 0.115947224
0003c0 53 a4 07 3e 34 a4 03 bf b6 1d 86 be 06 78 06 be
       0.13246278 -0.5142243 -0.26194543 -0.13131723
0003d0 54 7a b0 3d b3 50 43 3e fa 1a 9f 3d a9 65 9a bd
       0.08617082 0.19073753 0.07768817 -0.075389214
0003e0 f7 61 ef bd 6c bb 7a bd 82 6c 5f be df 1b 5c 3e
       -0.11688607 -0.061213896 -0.21818736 0.21495007
0003f0 db ea 8a 3d 9a ff c6 3e 12 b6 3f 3d 85 d5 13 3d
       0.067830764 0.38866884 0.046804495 0.0360923

features.denseblock1.denselayer2.norm2.weight f4 [48]
000000 46 bb 80 3f 96 b9 72 3f eb c9 80 3f d3 49 81 3f
       1.0057151 0.9481443 1.006162 1.0100654
000010 76 4b 76 3f c2 0b 77 3f a9 fd 86 3f 23 a4 86 3f
       0.96208894 0.96502316 1.0546161 1.051884
000020 6c 7e 75 3f e9 e2 7d 3f c8 76 82 3f 8b e5 7b 3f
       0.9589603 0.9917436 1.0192499 0.9839713
000030 82 81 7d 3f a0 b6 81 3f 12 07 7f 3f 78 04 80 3f
       0.9902574 1.0133858 0.99620163 1.0001364
000040 9d d0 83 3f f0 9f 81 3f 74 e4 8a 3f 62 83 83 3f
       1.0298039 1.0126934 1.0850968 1.027447
000050 c5 fc 74 3f 64 dc 8a 3f fe 4d 81 3f fb 09 81 3f
       0.95698196 1.0848508 1.0101926 1.0081171
000060 1a 59 78 3f b0 19 7a 3f 48 fc 83 3f 97 12 76 3f
       0.9701096 0.97695446 1.0311365 0.96122116
000070 72 78 6c 3f 88 27 84 3f b2 f7 78 3f 47 ab 7b 3f
       0.92371285 1.0324564 0.97252953 0.98308223
000080 14 04 70 3f bf 0b 83 3f d6 49 7d 3f 60 be 7f 3f
       0.9375622 1.023796 0.9894079 0.99899864
000090 66 bf 83 3f 16 24 7e 3f a5 d0 81 3f 10 78 87 3f
       1.0292785 0.9927381 1.0141798 1.0583515
0000a0 12 57 6b 3f 5a ae 79 3f 08 df 86 3f 68 23 71 3f
       0.91929734 0.97531664 1.0536814 0.9419465
0000b0 51 c7 80 3f 21 27 78 3f b2 b6 7f 3f 32 d1 83 3f
       1.0060827 0.96934706 0.99888146 1.0298216

features.denseblock1.denselayer2.norm2.bias f4 [48]
000000 92 e5 f2 ba d1 b7 76 bc 92 81 fe bb b4 b8 15 3d
       -0.0018531552 -0.015058474 -0.007766911 0.0365531
000010 69 1d da 3b 28 a5 a6 3c 36 0b 87 bc 40 c3 d9 3d
       0.006656338 0.020342425 -0.016484838 0.10632944
000020 98 9b cc 3d f3 e9 be 3c ed 27 23 3d 0f 1f f0 3d
       0.09990615 0.023304915 0.039832998 0.11724674
000030 3a 44 88 bc fd bb 66 3d 7e 4e 5e bc 0e 31 a1 bc
       -0.016634095 0.056331623 -0.013568519 -0.019676711
000040 f5 49 85 3c 63 db 3d bd e6 9a 4c 3d 9c 55 a8 bd
       0.016270617 -0.0463518 0.04995241 -0.08219454
000050 f9 75 66 bd f7 4e cf 3d 1a 5e 6b 3c d2 df 26 3c
       -0.05626485 0.10122483 0.014365697 0.010185199
000060 1a 34 00 bd b5 16 b6 bc 8d f5 16 3e ae 69 09 bd
       -0.031299688 -0.022227624 0.14742108 -0.03354805
000070 e7 4a b3 bd 04 d1 06 3e 5f 83 cb bd 99 8c a4 bc
       -0.08754521 0.1316567 -0.099371664 -0.020086573
000080 06 1a d0 3c 21 d1 18 3e 7d 24 33 bd 6b aa 28 bd
       0.025403034 0.14923526 -0.04373597 -0.04117815
000090 77 d1 a1 ba 1a e9 58 3d 45 b8 8f bd 9b 53 0a 3c
       -0.0012345751 0.052956678 -0.070175685 0.008442785
0000a0 4b 7b 05 bd d5 94 ba 3b 2b cb 0f bd dd f8 70 bd
       -0.032588284 0.0056940117 -0.035105865 -0.058831085
0000b0 70 0d 98 bc d3 1f 06 bd b6 64 55 bd 18 51 84 3d
       -0.018561095 -0.032745194 -0.052098 0.0646078

features.denseblock1.denselayer2.norm2.running_mean f4 [48]
000000 b0 c1 af be ac 98 7f 3f e4 aa cc 3e 1b 1a e6 bd
       -0.3432746 0.99842334 0.3997413 -0.11235448
000010 7e 19 7f 3d 7d a3 3f 3f 56 fe 68 bf 36 b6 c3 be
       0.06228017 0.7485884 -0.91013086 -0.38224953
000020 20 34 14 3f 31 c7 f3 3e df 17 16 bf 6e 72 02 3e
       0.57892036 0.47612908 -0.58630174 0.12738964
000030 77 a4 43 bf a6 6d 77 3f c1 14 e1 3e 55 76 72 be
       -0.7642283 0.96651685 0.43961146 -0.23677953
000040 12 af 83 bf 62 a5 81 be 77 83 87 be d2 b3 83 bf
       -1.0287802 -0.2532149 -0.26467487 -1.0289252
000050 17 71 c0 be 42 3d ac be 56 c9 1b bd 45 ef 7f be
       -0.3758628 -0.33640486 -0.038033806 -0.24993618
000060 cc a6 6b bf fb 87 b2 be e2 3f a9 3e c0 0e 6c 3f
       -0.92051387 -0.3486937 0.3305655 0.92210007
000070 70 63 9e be f6 5a dc 3e a3 b4 fc bd b0 af 7b be
       -0.3093524 0.43038148 -0.12339141 -0.24578738
000080 c7 45 08 be 77 dd b8 3e 92 57 0f be 32 0a 9e bd
       -0.13307868 0.36106464 -0.13998249 -0.07716788
000090 55 f6 2e 3e 4f 6c 7b 3f c2 24 ce bd 14 d9 2c bd
       0.17086156 0.9821214 -0.10065605 -0.04219921
0000a0 34 60 55 be 79 48 28 be b7 1f d5 3e 8c 9f 3a bf
       -0.2083748 -0.16433896 0.4162576 -0.728997
0000b0 bb 93 55 3e e8 24 f6 3e 22 e4 46 bf 82 25 d1 3c
       0.20857136 0.48075032 -0.77691853 0.02553058

features.denseblock1.denselayer2.norm2.running_var f4 [48]
000000 87 36 b9 3f fe 1c a1 3f 08 63 94 3f a6 b3 21 3f
       1.4469765 1.2586973 1.1592722 0.63164747
000010 95 de 63 3f 5e 83 32 3f 1f 20 69 3f c4 96 23 3f
       0.8901151 0.697317 0.9106464 0.63901925
000020 92 32 d2 3f 08 3b 86 3f f2 98 62 3f d3 df 31 3f
       1.6421683 1.0486765 0.88514626 0.69482154
000030 c4 c0 05 3f 51 91 1e 40 de 28 9b 3f ba 95 1c 3f
       0.5224726 2.4776194 1.2121847 0.61165965
000040 a4 76 b1 3f ca fe 08 3f 6d ad 55 3f 65 48 9e 3f
       1.3864331 0.5351378 0.8346775 1.2365843
000050 88 10 77 3f 93 89 5b 3f 10 ec 0a 3f a1 d4 fe 3e
       0.965096 0.85756797 0.5426645 0.49771598
000060 a6 52 21 40 39 f3 09 3f 8c 3a 95 3f 8d e9 b6 3f
       2.5206695 0.53886753 1.1658492 1.4290024
000070 82 8c 88 3f b2 62 f5 3f f9 c0 64 3f 55 29 33 3f
       1.066788 1.9170744 0.8935695 0.6998494
000080 c2 53 7e 3f ec 4e 95 3f 1f 5b fc 3e a4 55 64 3f
       0.99346554 1.166471 0.4928827 0.8919318
000090 f7 1c 43 3f a0 82 25 3f de 5e 5a 3f 7a b0 0c 40
       0.7621607 0.6465244 0.85301006 2.1982713
0000a0 24 85 18 3f b7 df 4c 3f 65 0a aa 3f cc 8d 6e 3f
       0.59578156 0.8002886 1.3284422 0.93185115
0000b0 3c 7e 31 3f cc 6b b8 3e 55 6e 81 3f c8 f7 09 3f
       0.69333243 0.36019742 1.0111796 0.5389371
